new_best_model.tflite (tflite, 93876 bytes, 5 tensors)

sequential_2/dense_9/BiasAdd/ReadVariableOp f4 [64]
0	0x3c3f143c	0.011662539
1	0x3d515fef	0.05111688
2	0x3e079e4d	0.1324398
3	0x3cc99a23	0.02460963
4	0x3e2efba8	0.17088187
5	0xbcd78e5b	-0.026312998
6	0xba88b43e	-0.0010429693
7	0x3e379c46	0.17930707
8	0x3be19b56	0.0068849726
9	0x3e44ddd3	0.19225244
10	0x3cf46a91	0.029835971
11	0x3e073819	0.13204993
12	0x3d8de030	0.06927526
13	0x3c8b8ab3	0.01703391
14	0xbdb2fbba	-0.08739419
15	0x3c526188	0.012840636
16	0xbd852a15	-0.06502167
17	0x3d6ad0b2	0.057327934
18	0xbda7b7d7	-0.081893615
19	0xbd794815	-0.06085976
20	0x3ddae967	0.10689049
21	0x3ad66f82	0.0016360136
22	0x3da3aa31	0.07991446
23	0x3e4a68b3	0.19766502
24	0xbc57c45e	-0.013169376
25	0xbdab611a	-0.0836813
26	0xbdeb8e82	-0.115017906
27	0x3d9f25ee	0.077709064
28	0xbd45c40d	-0.04828267
29	0x3d59cae8	0.053172022
30	0xbdfe6c4c	-0.12423
31	0xbd7b3ab7	-0.06133529
32	0xbd2dfbfe	-0.042476647
33	0x3e22a355	0.15882619
34	0xbd549190	-0.05189663
35	0xbb69b549	-0.0035661033
36	0xbd93c495	-0.072152294
37	0x3d9edacc	0.07756576
38	0x3d64838d	0.05578952
39	0xbda3f19e	-0.08005069
40	0x3e182ee7	0.14861642
41	0x3de4dbe8	0.11174756
42	0x3d179013	0.037002634
43	0xbce3e99f	-0.02782136
44	0x3dcf9274	0.101353556
45	0x3d8ce201	0.06879044
46	0x3e13fa8c	0.14451045
47	0xbd3ff66a	-0.04686586
48	0xbd923394	-0.07138744
49	0xbc946e67	-0.01811905
50	0xbdaa38a5	-0.08311585
51	0xbd8c23bc	-0.06842753
52	0xbd92fcb1	-0.07177103
53	0xbd0edb96	-0.034877382
54	0x3d1d29a9	0.03836981
55	0xbdbc69e2	-0.09199883
56	0x3d1ac807	0.037788417
57	0xbe03ecdb	-0.12883322
58	0x3d9489ef	0.07252871
59	0xbd823ed9	-0.063596435
60	0xbc343137	-0.010998062
61	0x3d722866	0.05912056
62	0xbd8fcc74	-0.07021418
63	0xbca4b6e2	-0.020106737

sequential_2/dense_8/BiasAdd/ReadVariableOp f4 [122]
0	0x3d83accb	0.06429442
1	0xbe3976e5	-0.18111761
2	0xbd4d0359	-0.05005202
3	0x3d04a3d9	0.03238282
4	0xbd3321e1	-0.04373348
5	0xbd01c6c7	-0.03168371
6	0xbdcd4b00	-0.10024071
7	0xbd789cb9	-0.060696337
8	0xbde6b9bb	-0.11265894
9	0x3d002aaf	0.031290706
10	0xbe104b1a	-0.14091149
11	0xbc13f842	-0.009031357
12	0x3d7b4c58	0.061352104
13	0xbda068b5	-0.07832471
14	0xbd585aeb	-0.05282108
15	0x3cf35aad	0.029706324
16	0xbe158d3e	-0.14604661
17	0xbe334188	-0.17505467
18	0xbe0031e2	-0.12519029
19	0x3d7ca4d9	0.06168065
20	0xbe750d85	-0.23930939
21	0x3d530f1a	0.051528074
22	0x3d5ec2ec	0.05438511
23	0xbe010190	-0.12598252
24	0xbd24a4ee	-0.04019635
25	0x3db25c50	0.087090135
26	0xbdd579b4	-0.10423604
27	0x3d056b37	0.03257295
28	0x3d9c5f95	0.07635418
29	0xbe4a10b9	-0.19732942
30	0xbdc5face	-0.09666978
31	0xbe320b0a	-0.17387024
32	0xbd00c9b9	-0.031442378
33	0xbd3ff3c7	-0.046863344
34	0xbdc12b1f	-0.09432053
35	0x3d1317fb	0.03591154
36	0xbd9c5f46	-0.076353595
37	0xbd920c5c	-0.071312636
38	0xbd7f55b6	-0.0623376
39	0xbdb93964	-0.090441495
40	0xbc11e47e	-0.008904574
41	0xbd8d0ac2	-0.068868175
42	0xbdc85e93	-0.097836636
43	0xbde60831	-0.11232031
44	0xbd519931	-0.051171485
45	0xbdfa2a56	-0.12215106
46	0xbdb00f48	-0.08596665
47	0x3c5d3c08	0.013503082
48	0xbd8a0eb8	-0.06741089
49	0xbe4a7085	-0.19769485
50	0x3d2276fa	0.039664246
51	0xbce5031e	-0.027955588
52	0xbd2445db	-0.040105682
53	0x3d0d36a5	0.03447594
54	0x3d64716f	0.05577224
55	0xbe44d665	-0.1922241
56	0xbd4f455e	-0.050603263
57	0x3d80f24e	0.06296216
58	0xbdd84003	-0.10559084
59	0xbcee0911	-0.029057058
60	0xbc7c42b3	-0.015396762
61	0xbd3b59a4	-0.045739785
62	0xbdab1722	-0.083540216
63	0x3d81d166	0.06338768
64	0x3aa8ea12	0.0012887141
65	0x3bb524b7	0.0055280584
66	0x3d3a6ed0	0.045515835
67	0x3d0e9738	0.034812182
68	0x3cffc57c	0.031222098
69	0xbd633f4c	-0.055480286
70	0xbcb3cd8b	-0.021948596
71	0xbe1e3715	-0.154507
72	0xbe005f22	-0.1253629
73	0xbd60dcda	-0.05489812
74	0xbd090594	-0.033452585
75	0x3d3d991e	0.046288602
76	0xbde9b7ce	-0.11412011
77	0x3d125094	0.035721377
78	0x3d7bbc5c	0.06145893
79	0xbc615905	-0.013754134
80	0x3d141f18	0.036162466
81	0xbd8979ad	-0.06712661
82	0x3ba0ec35	0.0049109706
83	0xbd568eb4	-0.052382186
84	0xbddcd64a	-0.1078306
85	0xbcdc2fd4	-0.026878275
86	0xbd018556	-0.0316213
87	0xbdff23c3	-0.12457993
88	0xbe68ba9f	-0.2272744
89	0xbbed26c2	-0.0072372863
90	0xbdb46db4	-0.08809987
91	0xbe0eb5cc	-0.13936538
92	0x3d1e1d84	0.038602367
93	0xbb78c9b6	-0.0037962026
94	0xbb11a7c8	-0.002222525
95	0xbd631001	-0.055435184
96	0xbd256d1d	-0.04038726
97	0x3d068e15	0.032850344
98	0xbdd5ae9c	-0.10433695
99	0x3c65b998	0.0140213
100	0x375ba0f4	1.3090892e-05
101	0xbddc7abd	-0.10765598
102	0xbddd209f	-0.107972376
103	0xbc3e9be8	-0.011633851
104	0xbe2ae2ab	-0.1668803
105	0xbdd73521	-0.105081804
106	0xbc9e9e49	-0.019362586
107	0xbdcbbdfc	-0.09948346
108	0xbc4f795c	-0.012663212
109	0x3d2c3da8	0.042050987
110	0x3d193dae	0.037412338
111	0xbe4045ae	-0.1877658
112	0xbe2a8008	-0.16650403
113	0x3d093380	0.03349638
114	0x3d12220e	0.03567701
115	0x3ce218ae	0.027599659
116	0x3d4f4c68	0.050609976
117	0xbd5ea89b	-0.054360013
118	0xbe1b7f8f	-0.15185378
119	0xbdfe6be4	-0.12422922
120	0xbe065339	-0.13117684
121	0xbda5cdef	-0.08095919

sequential_2/dense_8/MatMul f4 [122, 122]
0	0xbebd8b27	-0.37020227
1	0x3ec988d8	0.39362216
2	0x3fa1c312	1.2637656
3	0xbcea564c	-0.028605603
4	0xbe56ae7b	-0.20964997
5	0x3e855ddc	0.26048172
6	0x3eec44e8	0.4614632
7	0x3ca1296c	0.019673072
8	0xbd542f6e	-0.051803045
9	0xbe160619	-0.14650764
10	0x3ebe1521	0.37125495
11	0x3d50add0	0.05094701
12	0xbf13e903	-0.5777742
13	0x3dfa470b	0.122205816
14	0x3ee8a977	0.4544179
15	0xbe820570	-0.25394773
16	0x3cd81418	0.026376769
17	0xbd1e1865	-0.038597483
18	0xbe67f187	-0.22650729
19	0x3e4fc84d	0.20291252
20	0x3d808b54	0.06276575
21	0x3dd15fe8	0.10223371
22	0x3db6215b	0.08893081
23	0xbf134e81	-0.5754166
24	0xbd344555	-0.044011433
25	0xbd586b31	-0.0528366
26	0xbe4577f0	-0.19284034
27	0xbe4c2428	-0.19935668
28	0xbe82057d	-0.25394812
29	0xbe727852	-0.23678711
30	0xbddf233b	-0.108953916
31	0xbf4826bf	-0.7818412
32	0x3ea3e2f0	0.32009077
33	0x3f07e88a	0.530892
34	0xbd9ff3b5	-0.07810155
35	0xbe829ae3	-0.25508794
36	0x3e966cbc	0.29379833
37	0x3ddf6514	0.10907951
38	0xbd16dcc6	-0.03683164
39	0xbc9578ec	-0.018246137
40	0x3e4e7c8f	0.20164703
41	0xbdebd682	-0.115155235
42	0x3e0d0dd5	0.13774808
43	0xbd4bbc05	-0.049739856
44	0xbe2016e0	-0.15633726
45	0x3b1c71c6	0.0023871525
46	0xbd858df2	-0.065212145
47	0xbdd23746	-0.10264449
48	0x3e35410b	0.17700593
49	0x3d6cb872	0.05779309
50	0x3db57c33	0.0886158
51	0x3de21fdf	0.11041235
52	0x3dfe09cc	0.12404212
53	0xbd81c4dc	-0.06336376
54	0x3e3f6c4d	0.18693657
55	0xbd02881d	-0.03186809
56	0xbc6e4c5e	-0.014544575
57	0xbcfc7c76	-0.030821066
58	0x3de8006c	0.113282055
59	0xbe9bdfb6	-0.30444115
60	0xbe449efd	-0.19201274
61	0x3e1c6cf2	0.15275934
62	0x3cb6cc71	0.022314282
63	0xbdebd4fa	-0.115152314
64	0xbd223274	-0.039598897
65	0xbee06d26	-0.43833274
66	0xbdaf5440	-0.08560991
67	0xbddb30ec	-0.107026905
68	0x3c97aa10	0.01851371
69	0x3e811f32	0.25219113
70	0x3e25d240	0.16193485
71	0x3e2dbcaa	0.16966501
72	0xbdd99dec	-0.10625824
73	0xbe06337b	-0.13105576
74	0xbd5d6e42	-0.05406023
75	0xbd3701a1	-0.044679288
76	0xbdd3ceb3	-0.10342159
77	0x3ce9dd5d	0.028547937
78	0xbc822082	-0.015884642
79	0xbbc36234	-0.0059626345
80	0x3e09e707	0.13467036
81	0x3bc3de41	0.0059774225
82	0x3d27fc54	0.041012123
83	0x3e6c2b4c	0.23063391
84	0xbdaef98f	-0.08543693
85	0x3e529a7f	0.20566748
86	0xbcad1788	-0.021129385
87	0x3c887156	0.016655605
88	0xbef421f7	-0.47682163
89	0xbde50ecd	-0.11184464
90	0x3e84da37	0.25947735
91	0xbc89c831	-0.016819092
92	0x3df34f5f	0.11880373
93	0xbd91aae9	-0.07112677
94	0xbdf30b36	-0.11867373
95	0xbe35b291	-0.17743899
96	0x3e2d6cd7	0.1693605
97	0x3df2b062	0.118500486
98	0x3e0ad460	0.13557577
99	0x3da78758	0.08180112
100	0x3d9706d7	0.073743515
101	0x3d4d7969	0.050164614
102	0xbd198434	-0.037479594
103	0x3d982804	0.074295074
104	0xbe33f707	-0.17574702
105	0xbd10fbe6	-0.03539648
106	0x3de27771	0.11057938
107	0x3da3bc21	0.07994867
108	0x3e5f8ddb	0.21831457
109	0xbe07be06	-0.13256082
110	0xbcaf97b5	-0.021434644
111	0x3e964d51	0.29355863
112	0x3e39793c	0.18112653
113	0xbe5e37f3	-0.2170103
114	0x3d84524e	0.06461011
115	0xbe0326fd	-0.12807842
116	0x3aeba7b4	0.0017979057
117	0xbd3d69d0	-0.04624349
118	0x3cbdd21f	0.023171483
119	0x3e018264	0.12647396
120	0x3d93ec47	0.07222801
121	0x3ee8debd	0.45482436
122	0xbbd5767d	-0.006514369
123	0x3ebc83c7	0.36819288
124	0xbe797e1f	-0.24364518
125	0x3d1fe7fd	0.0390396
126	0xbdc4cd10	-0.09609425
127	0xbd0ff3ad	-0.035144497
128	0x3f0be186	0.54640996
129	0x3e640d4c	0.22270697
130	0xbd51fc49	-0.05126599
131	0x3f318701	0.69346625
132	0xbe175ae7	-0.1478077
133	0xbe2ed5f2	-0.17073801
134	0x3cfc975f	0.030833898
135	0xbeae0e63	-0.3399535
136	0x3ea4af1b	0.32164845
137	0xbe05efb5	-0.13079722
138	0x3e03f64c	0.12886924
139	0x3ea884d9	0.32913855
140	0xbd190e7f	-0.03736734
141	0x3d1eab68	0.038737684
142	0xb8281a5f	-4.007888e-05
143	0x3c84cb36	0.01621018
144	0xbd57a12c	-0.05264394
145	0x3c9228f3	0.017841792
146	0x3d5be8fd	0.05368899
147	0xbe4a0cde	-0.19731471
148	0xbe1db2af	-0.15400194
149	0xbe865d08	-0.26242852
150	0x3e229d40	0.15880299
151	0x3df5b58f	0.1199752
152	0xbc83cafc	-0.016088001
153	0xbeb1b7de	-0.34710592
154	0x3ce89547	0.028391493
155	0xbea95198	-0.33070064
156	0x3e2a9f57	0.16662346
157	0xbda0e944	-0.07856992
158	0x3e3c0c94	0.18364173
159	0xbe3599dd	-0.17734475
160	0xbe49edde	-0.19719645
161	0xbd7f402d	-0.062317062
162	0xbd6b7652	-0.057485886
163	0xbebf85a9	-0.37406662
164	0xbe4cd40d	-0.20002766
165	0xbd8d606d	-0.069031574
166	0xbe1c9f39	-0.15295114
167	0x3e89b6fb	0.26897416
168	0x3dcb749a	0.09934349
169	0x3c58791c	0.0132124685
170	0xbda35823	-0.07975795
171	0x3e30f5ea	0.17281309
172	0x3e871502	0.26383215
173	0x3e9171c4	0.2840711
174	0x3dea737a	0.11447807
175	0x3e0310e2	0.12799409
176	0x3e14e217	0.14539371
177	0xbe4f6c05	-0.2025605
178	0x3bf84266	0.0075762747
179	0x3d33485e	0.043770187
180	0x3bd6092a	0.006531854
181	0x3dee20d5	0.11627356
182	0x3da81f40	0.082090855
183	0xbdc5bdf7	-0.096553735
184	0x3e35fe72	0.17772844
185	0x3d1d3dea	0.038389124
186	0xbcac9057	-0.02106492
187	0xbde797cf	-0.11308252
188	0x3de27664	0.110577375
189	0xbd98bc1a	-0.074577525
190	0x3dcadc33	0.09905281
191	0xbdc73411	-0.09726728
192	0xbc743580	-0.0149053335
193	0x3e72c6cf	0.23708652
194	0x3e717f9b	0.23583834
195	0xbdcbf14a	-0.099581316
196	0xbd3421dd	-0.043977607
197	0x3dba7f99	0.091063686
198	0x3d0f56c9	0.034994874
199	0x3e20869a	0.15676346
200	0x3e966f22	0.29381663
201	0x3d00d0b7	0.031449046
202	0x3e81e047	0.25366423
203	0x3d502aa3	0.05082191
204	0xbd7a6aab	-0.061136883
205	0x3e90e5d2	0.2830034
206	0x3d920f41	0.07131816
207	0xbe2fc974	-0.17166692
208	0x3e0ea987	0.13931857
209	0x3d3efca7	0.046627667
210	0xbdc334b7	-0.09531539
211	0x3e624a66	0.22098693
212	0xbda1002d	-0.07861362
213	0xbe0abad5	-0.13547833
214	0x3b4b1211	0.003098611
215	0xbcaaaf58	-0.020835564
216	0x3d96c736	0.07362215
217	0xbdedfd8b	-0.11620625
218	0x3e93ef91	0.28893712
219	0x3dc4e403	0.09613802
220	0xbd40c552	-0.04706318
221	0x3e4b6764	0.19863659
222	0x3e317c5e	0.17332599
223	0xbe3ff423	-0.18745475
224	0xbe46e3f4	-0.19422895
225	0xbd73a31b	-0.05948172
226	0xbd7c0945	-0.061532278
227	0xbddc4b5e	-0.10756563
228	0xbe447cc7	-0.19188224
229	0x3e2b0e7f	0.16704749
230	0x3da7fef3	0.082029246
231	0x3da802a7	0.08203631
232	0x3dda9b05	0.10674099
233	0xbc7d6c4b	-0.015467714
234	0x3e4417c9	0.19149698
235	0x3bfb3458	0.007666152
236	0x3c46e0d0	0.01213856
237	0x3d8483a1	0.06470419
238	0xbc9ae2df	-0.018907009
239	0xbc3bd60c	-0.011464607
240	0x3d9a3d98	0.07531279
241	0xbd4f8f41	-0.050673727
242	0xbd35ecb2	-0.044415183
243	0x3dc2ccb1	0.09511698
244	0x3f8148e6	1.0100372
245	0xbee01fb0	-0.43774176
246	0x3cd28498	0.025697991
247	0xbd8d7616	-0.06907289
248	0x3e4ab093	0.1979392
249	0x3dceba5a	0.100941375
250	0xbfd89544	-1.6920552
251	0x3d490e15	0.049085695
252	0x3d4921fb	0.049104672
253	0xbe64c74c	-0.2234165
254	0x3d88a5e9	0.0667227
255	0x3e77666d	0.24160166

sequential_2/dense_9/MatMul f4 [64, 122]
0	0xbf38d844	-0.72204995
1	0xbda0209f	-0.07818722
2	0x3e4fa629	0.20278229
3	0x3e59e4fb	0.21278755
4	0x3e12c875	0.14334281
5	0xbd8ef1cc	-0.06979713
6	0xbe7e4a5d	-0.24833055
7	0xbe7d57b9	-0.24740495
8	0x3e51f0a5	0.20501955
9	0xbe8e626a	-0.2780946
10	0x3d9e9127	0.07742529
11	0xbe1cdd6d	-0.15318842
12	0xbb87b861	-0.0041418527
13	0xbd9de630	-0.077099204
14	0xbea0cb29	-0.31405
15	0xbec039c3	-0.3754407
16	0x3debfc45	0.11522726
17	0xbe4a8db5	-0.1978062
18	0xbc4f8a0b	-0.012667189
19	0xbda96782	-0.08271696
20	0xbe07a378	-0.13245952
21	0x3f118b0b	0.5685279
22	0xbe2a2ee8	-0.16619456
23	0x3dfb562e	0.12272297
24	0xbdaeca57	-0.08534687
25	0x3e02e3f5	0.12782271
26	0x3e642ba4	0.22282273
27	0x3e70a366	0.23499832
28	0xbeb101d6	-0.34571713
29	0xbd167dc9	-0.03674105
30	0x3d155664	0.03645934
31	0xbdb24c13	-0.08705916
32	0xbd8fd84a	-0.07023676
33	0xbceade92	-0.028670583
34	0x3e0cda9c	0.13755268
35	0x3cf70c6e	0.030157294
36	0xbe376dc5	-0.17912968
37	0x3e6ac9ef	0.22928594
38	0x3ee1009b	0.43945774
39	0x3b3e5f3a	0.0029048459
40	0x3e3b75ec	0.18306702
41	0x3e4dfe01	0.20116426
42	0xbdb24e59	-0.0870635
43	0xbda80e5c	-0.08205864
44	0xbba2edc4	-0.0049721915
45	0x3e37d229	0.17951263
46	0xbe0c69af	-0.1371219
47	0x3eb99e5c	0.3625363
48	0x3dc5474b	0.09632739
49	0xbcdad71b	-0.026713898
50	0xbe16e1ff	-0.14734648
51	0x3e9c621d	0.30543604
52	0xbeb683de	-0.35647482
53	0xbd4c1a88	-0.04982999
54	0xbf0e576a	-0.55602133
55	0x3e1393ea	0.14411893
56	0x3b64ab8c	0.003489229
57	0xbe8613b6	-0.26186913
58	0x3e9e145a	0.30874902
59	0x3f30e2cf	0.6909608
60	0xbf4108ad	-0.75403863
61	0x3f0b530c	0.54423594
62	0xbd3ed829	-0.046592865
63	0xbebbbff1	-0.36669877
64	0x3e816309	0.2527087
65	0xbdcd4f28	-0.100248635
66	0xbd84aa37	-0.064777784
67	0x3db15f21	0.086607225
68	0x3e8153c7	0.2525923
69	0x3e2d1614	0.16902953
70	0xbe6dc978	-0.23221385
71	0xbe873ef9	-0.26415232
72	0x3ea3d01d	0.31994715
73	0xbd81280c	-0.063064665
74	0xbecac66c	-0.3960451
75	0xbe92f208	-0.2870028
76	0x3e4995fd	0.19686122
77	0x3e5ee484	0.2176686
78	0xbe837d87	-0.25681707
79	0xbf0e1b9a	-0.55510867
80	0xbeecaec6	-0.46227092
81	0x3e79b669	0.2438599
82	0xbf6a9926	-0.91639936
83	0xbe1f87a1	-0.15579082
84	0xbe8372e3	-0.2567359
85	0x3e2f3e41	0.17113592
86	0xbd0d22ca	-0.034457006
87	0xbcd3e3d0	-0.025865465
88	0x3d961953	0.07329049
89	0x3f420731	0.75792223
90	0xbb802881	-0.0039110784
91	0xbdd073b5	-0.10178319
92	0x3e551e1f	0.20812272
93	0xbe3812b6	-0.17975888
94	0xbdc3e5cb	-0.09565314
95	0x3d7df5cb	0.062001985
96	0xbd90fb32	-0.07079162
97	0xbe28a3e6	-0.16468772
98	0xbe263a3c	-0.16233152
99	0xbec05521	-0.37564948
100	0x3eb89e76	0.36058396
101	0xbf0167df	-0.5054912
102	0x3dea4bd5	0.11440245
103	0xbef82d09	-0.4847186
104	0x3d80a54f	0.0628153
105	0x3e33d6e2	0.1756244
106	0x3e4a2977	0.1974238
107	0xbcce236c	-0.025163375
108	0x3ebd2617	0.36943123
109	0xbe00d754	-0.12582141
110	0xbdc2107e	-0.09475802
111	0x3e60df9c	0.219603
112	0xbe7ee78a	-0.24893013
113	0xbe8333ff	-0.25625607
114	0xbe3fe1c8	-0.18738472
115	0xbf3630e0	-0.7116833
116	0xbeb569f6	-0.35432404
117	0xbd6ec603	-0.058294307
118	0x3e49a737	0.19692694
119	0x3e1b6f05	0.1517907
120	0x3d9b62b1	0.07587183
121	0x3e247f74	0.16064245
122	0xbdb046d2	-0.08607258
123	0xbd94c426	-0.07263975
124	0x3e4fcaca	0.20292202
125	0x3e180d70	0.14848876
126	0xbe5df7b4	-0.21676522
127	0x3e288d78	0.16460216
128	0xbdcc910b	-0.09988602
129	0xbefa16b6	-0.48845452
130	0xbdab01c4	-0.08349946
131	0xbe860010	-0.26171923
132	0xbefd16fc	-0.49431598
133	0xbe0b3b97	-0.1359695
134	0xbe8f70a3	-0.28015622
135	0xbe52ab5b	-0.2057318
136	0x3cadf338	0.02123414
137	0xbf091db7	-0.53560966
138	0x3d99e24c	0.07513866
139	0x3d846e89	0.064663954
140	0x3da9bdfc	0.0828819
141	0x3f111de7	0.5668625
142	0x3e027161	0.12738563
143	0xbc9c8bb1	-0.019109579
144	0xbd81b068	-0.06332475
145	0x3e0da716	0.1383327
146	0xbeac4f4e	-0.33654255
147	0xbda4d97b	-0.080492936
148	0x3e72cb87	0.23710452
149	0x3f2fce9d	0.6867464
150	0xbeac904b	-0.33703837
151	0xbda0e512	-0.07856192
152	0x3e2d6ae6	0.1693531
153	0xbe507ad5	-0.20359357
154	0xbeb95c34	-0.36203158
155	0x3da01340	0.07816172
156	0xbe76ad6e	-0.24089596
157	0x3e1b47ed	0.15164156
158	0xbe97f5e6	-0.29679793
159	0x3e6f7217	0.23383366
160	0x3eaf00fd	0.34180441
161	0x3e573e2e	0.21019813
162	0xbe9ca2c6	-0.30592936
163	0xbf050847	-0.51965755
164	0x3e2011b8	0.15631759
165	0x3d812803	0.0630646
166	0x3ec2b5aa	0.38029224
167	0x3d95875d	0.07301209
168	0xbd956195	-0.07294003
169	0x3e432e3d	0.19060607
170	0x3d989759	0.07450742
171	0x3e01e381	0.12684442
172	0x3dca7ea2	0.098874345
173	0x3e25cc91	0.16191317
174	0xbe83bbeb	-0.25729308
175	0xbee855c9	-0.4537795
176	0xbeb18c3f	-0.34677312
177	0x3d021375	0.031756837
178	0xbf0c593f	-0.5482368
179	0x3eee65f4	0.4656216
180	0xbe4c1704	-0.19930655
181	0x3f0c5396	0.5481504
182	0xbf5401ae	-0.82815063
183	0x3f13426d	0.5752323
184	0xbd4ffbf4	-0.05077739
185	0xbea31b92	-0.31856972
186	0x3e9cfa60	0.3065977
187	0x3e699d3c	0.22813886
188	0x3dd2b5e4	0.10288599
189	0x3ecb9623	0.39762983
190	0x3e32b785	0.1745282
191	0x3e442959	0.19156398
192	0xbe034b62	-0.12821725
193	0xbec19df7	-0.3781583
194	0x3edcb944	0.43110096
195	0xbf12e1d8	-0.5737586
196	0xbe536a40	-0.20646
197	0xbdd6712d	-0.10470805
198	0x3e258a9c	0.16166157
199	0x3ec911c7	0.39271376
200	0xbde19e0c	-0.11016473
201	0xbf442457	-0.7661795
202	0xbee5b9f7	-0.44868442
203	0x3def6d8e	0.11690818
204	0xbeafbb35	-0.34322515
205	0xbf1173c9	-0.568173
206	0xbd9ac2bf	-0.07556676
207	0x3e6f2fb9	0.23358048
208	0xbea88583	-0.3291436
209	0x3dcab612	0.098980084
210	0xbbf17732	-0.0073689455
211	0x3f641b8a	0.8910452
212	0xbc9b5ea6	-0.01896603
213	0xbec29392	-0.38003212
214	0xbe501c3f	-0.20323275
215	0xbee38243	-0.4443532
216	0x3c915ab5	0.017743448
217	0xbe4dd4bd	-0.20100684
218	0xbe5b531a	-0.2141842
219	0xbd4a790f	-0.049431857
220	0xbee7b9ff	-0.4525909
221	0xbdb3e215	-0.08783356
222	0x3ece345d	0.40274325
223	0xbdcc71ca	-0.09982641
224	0x3e6f6bde	0.23380992
225	0x3da2a73e	0.07942055
226	0x3e908e5a	0.28233606
227	0xbe80e0ba	-0.25171453
228	0x3eb5288e	0.35382503
229	0xbe9456d2	-0.2897249
230	0x3ea8b93e	0.3295383
231	0x3e22bae6	0.15891609
232	0x3dd40387	0.10352235
233	0x3e897326	0.26845664
234	0x3e344556	0.17604575
235	0xbee59a56	-0.4484431
236	0xbe28be42	-0.16478828
237	0x3dc8b426	0.097999856
238	0x3dc01e2c	0.09380755
239	0x3d8439f1	0.06456364
240	0xbe9684d4	-0.29398215
241	0x3e31a670	0.17348647
242	0x3ded8b6a	0.11598857
243	0xbe7e9361	-0.24860908
244	0xbe54eb36	-0.20792851
245	0xbe777ff7	-0.24169908
246	0xbe099b2d	-0.13438101
247	0x3dccdb12	0.10002722
248	0xbe1e93f7	-0.15486132
249	0x3c5f57ee	0.013631804
250	0x3e0a42e3	0.13502078
251	0xbeb70f5c	-0.35753906
252	0xbf522709	-0.8209081
253	0xbec2cbc5	-0.3804609
254	0xbe8b75a7	-0.272382
255	0xbdc7c4d4	-0.09754339

sequential_2/dense_10/MatMul f4 [1, 64]
0	0xbec16e9b	-0.37779698
1	0xbf543cc6	-0.8290523
2	0xbf3d5d18	-0.73970175
3	0x3f360a25	0.7110923
4	0xbec71948	-0.38886476
5	0x3e8e3f58	0.27782702
6	0x3e8ee95b	0.2791241
7	0xbea12033	-0.3146988
8	0x3f39fea5	0.7265418
9	0xbeb1ed20	-0.34751225
10	0xbf14cf2d	-0.58128625
11	0xbf3e8594	-0.74422574
12	0x3f4a471a	0.7901474
13	0xbf207edb	-0.62693566
14	0xbf35d323	-0.71025294
15	0xbf3d43b6	-0.73931444
16	0xbf9916cf	-1.1960086
17	0x3f5a495c	0.8526819
18	0x3efe84de	0.49710745
19	0x3ee77757	0.45208237
20	0xbf5be2fc	-0.85893226
21	0x3efc260a	0.49247772
22	0x3eddb11a	0.4329918
23	0xbecb7bfa	-0.39743024
24	0x3f4a76a2	0.7908727
25	0xbe111775	-0.14169104
26	0x3ea6233d	0.3244876
27	0xbef77a9c	-0.4833573
28	0x3f1f7c40	0.62298965
29	0x3f327d35	0.697223
30	0xbfb2ef2e	-1.3979242
31	0x3f099a3d	0.53750974
32	0x3f314c33	0.69256896
33	0xbecbc1a4	-0.39796174
34	0xbf676e32	-0.9040252
35	0x3ef5c1b4	0.47999346
36	0x3f38d4a1	0.72199446
37	0xbf1268f7	-0.57191414
38	0xbf09b8dc	-0.537977
39	0xbd0fa4ec	-0.03506939
40	0xbecdce7d	-0.401966
41	0xbf393dfc	-0.72360206
42	0x3ea4ca93	0.32185802
43	0x3e99e117	0.30054542
44	0xbed80cc2	-0.42197233
45	0xbf194fcb	-0.5988738
46	0xbf090a25	-0.53531104
47	0xbc934e96	-0.017981809
48	0x3f25aad3	0.6471378
49	0x3f00d7d8	0.5032935
50	0xbdd9b43d	-0.10630081
51	0x3e504bbc	0.2034139
52	0x3e7d044a	0.24708667
53	0x3e8f6243	0.28004655
54	0xbed1e2a6	-0.40993232
55	0x3f3e77a2	0.74401295
56	0xbf75f545	-0.96077377
57	0x3ded4b17	0.11586588
58	0xbf087087	-0.53296703
59	0xba7a00c7	-0.0009536859
60	0x3eedf676	0.46477097
61	0x3f76313e	0.9616889
62	0xbf201f4e	-0.6254777
63	0xbf1c8c16	-0.61151254
