CA1/Models/OptimizedNeuralNetwork.tflite (tflite, 93864 bytes, 5 tensors)

sequential_1/dense_5/BiasAdd/ReadVariableOp f4 [64]
0	0xbdfd260d	-0.12360773
1	0x3e0d8f3f	0.13824175
2	0x3e092f70	0.13397002
3	0xbcd88f4c	-0.026435517
4	0xbc86d8c0	-0.016460776
5	0x3d54eb52	0.05198223
6	0xbd1c01eb	-0.038087767
7	0xbd53a619	-0.051672075
8	0x3d1f84d4	0.038945034
9	0x3dcf6624	0.10126904
10	0x3b6ab862	0.0035815467
11	0x3cd481c3	0.025940781
12	0xbde97e8e	-0.114010915
13	0xbc0bf298	-0.008541726
14	0x3dc12a36	0.09431879
15	0x3ca5d996	0.020245355
16	0xbd11058c	-0.03540568
17	0xbdf781b3	-0.12085285
18	0xbcef2938	-0.02919446
19	0xbc52d771	-0.012868748
20	0x3dedd180	0.116122246
21	0x3d077f79	0.03308055
22	0x3e12d258	0.14338052
23	0x3c016824	0.007898364
24	0x3dd04219	0.10168857
25	0x3df5166b	0.119671665
26	0xbcb3ec26	-0.02196319
27	0x3d0b91d9	0.034074638
28	0x3c9f37d8	0.019435808
29	0x3db2843e	0.087166294
30	0xbdff5519	-0.12467403
31	0x3e01e00d	0.12683125
32	0x3c8e0775	0.01733754
33	0x3de31f2a	0.110899284
34	0xbd3b6d11	-0.04575831
35	0x3c19b4ba	0.0093814675
36	0xbb2967cd	-0.0025849224
37	0x3d5abb51	0.053401295
38	0x3ce59c63	0.028028673
39	0xbbecefb8	-0.007230725
40	0x3deb5723	0.114912294
41	0x3c73fff1	0.014892564
42	0x3e60dba5	0.21958788
43	0x3d597e0d	0.053098727
44	0x3e0990d9	0.13434161
45	0xbdbd8967	-0.09254723
46	0x3c341597	0.010991476
47	0x3e11ee89	0.1425115
48	0x3d9b3e3d	0.075802304
49	0xbd2fb364	-0.04289569
50	0x3daa901a	0.083282664
51	0x3d34cea5	0.044142384
52	0xb9bf9b3c	-0.00036546018
53	0x3d83ee68	0.06441957
54	0x3d96f6b0	0.07371271
55	0x3de227ea	0.11042769
56	0x3dc8bcbb	0.098016225
57	0x3e0388ff	0.12845229
58	0x3df267c7	0.118362
59	0xbd48f97b	-0.049066048
60	0x3d0a6849	0.03379086
61	0x3c2f06c4	0.010682765
62	0x3e0700a7	0.13183843
63	0xbb5f1f3e	-0.0034045721

sequential_1/dense_4/BiasAdd/ReadVariableOp f4 [122]
0	0xbda08329	-0.07837517
1	0xbd9a4e92	-0.07534517
2	0xbca0acd7	-0.019613666
3	0xbd7be7b2	-0.06150026
4	0x3db32937	0.087480955
5	0xbc71929b	-0.014744426
6	0xbbd2874a	-0.006424819
7	0xbd24e07e	-0.040253155
8	0xbcac949b	-0.021066954
9	0xbbc3a4c7	-0.0059705707
10	0xbdada490	-0.084786534
11	0x3debdcd8	0.11516732
12	0xbe1622b1	-0.14661671
13	0xbb207b74	-0.0024487646
14	0xbdefaf8b	-0.11703404
15	0x3be3fe16	0.0069577796
16	0xbde642cf	-0.112432115
17	0xbdde6c13	-0.10860457
18	0xbe28d7e3	-0.16488604
19	0xbd301bb5	-0.042995173
20	0x3d44ab4a	0.048014916
21	0xbda9effc	-0.082977265
22	0x3d61c8b7	0.055123057
23	0xbddb14ec	-0.1069735
24	0xbdb63aed	-0.08897958
25	0xbd813e85	-0.06310753
26	0xbd623bac	-0.05523269
27	0xbd618630	-0.05505961
28	0xbde26caf	-0.11055886
29	0xbd750cd5	-0.05982669
30	0xbdab6e2f	-0.08370625
31	0xba4c82ce	-0.0007801474
32	0xbd32e182	-0.043672092
33	0xbd8950a3	-0.06704833
34	0xbdb18ff4	-0.08670035
35	0x3d949d8a	0.07256611
36	0xbde2a617	-0.110668354
37	0x3b3e36a3	0.0029024265
38	0xbdb53686	-0.0884829
39	0xbe13e51d	-0.14442869
40	0x3c4a1e0b	0.012336264
41	0xbbebe620	-0.007199064
42	0xbe3c1567	-0.1836754
43	0x3d6199fc	0.05507849
44	0x3d656f51	0.056014363
45	0xbdd039ec	-0.10167298
46	0x3c7f09c5	0.015566294
47	0x3d3fc363	0.046817195
48	0x3d58b240	0.052904367
49	0xbc8949ab	-0.01675876
50	0xbd8949a9	-0.06703503
51	0x3cc73e2b	0.024321636
52	0xbdec451f	-0.11536621
53	0x3cf83c89	0.030302303
54	0xbda9afde	-0.08285497
55	0x3d7e2da1	0.062055234
56	0xbe164837	-0.14675985
57	0xbe17666d	-0.14785166
58	0xbdb5c5e8	-0.08875638
59	0x3c6efa2d	0.014586014
60	0xbe3b79c1	-0.18308164
61	0x3d12b478	0.03581664
62	0xbcaf36a5	-0.021388361
63	0xbdec2038	-0.11529583
64	0xb9d6baab	-0.0004095634
65	0x3ca70291	0.020386966
66	0xbc2a1053	-0.010379869
67	0xbde8718c	-0.11349782
68	0xbd5c5a42	-0.053797014
69	0x3c60d341	0.013722242
70	0x3cb909ea	0.022587735
71	0xbd1cd194	-0.038285807
72	0xbdd7fa99	-0.105458446
73	0xbe1aa69b	-0.15102617
74	0xbd998d9b	-0.07497712
75	0xbd8bd46c	-0.06827626
76	0xbe22a3a5	-0.15882738
77	0x3d9ce670	0.0766114
78	0x3cf0e33c	0.029405229
79	0x3c662241	0.014046253
80	0x3beaf42c	0.007170221
81	0xbd9eba32	-0.07750358
82	0xbe3828a0	-0.17984247
83	0xbcdac410	-0.026704818
84	0xbc965674	-0.018351771
85	0xbc1ead19	-0.009684824
86	0x3ce71e72	0.02821276
87	0xbc9129c8	-0.017720118
88	0xbca50749	-0.020145075
89	0xbdd5ea48	-0.10445076
90	0x3cacbaba	0.021085132
91	0xbcb0068b	-0.021487495
92	0xbd2f8814	-0.042854384
93	0x3bfc765e	0.00770454
94	0xbcb0cf3d	-0.021583194
95	0xbc00ffe5	-0.00787351
96	0xbdd05053	-0.10171571
97	0xbde80df5	-0.11330787
98	0xbdfda953	-0.12385812
99	0xbd96e24d	-0.07367382
100	0xbde80d77	-0.11330693
101	0xbca8a2bd	-0.020585412
102	0xbe320267	-0.17383729
103	0xbc2b0f66	-0.010440683
104	0xbdaffa7c	-0.08592698
105	0x3d0bcea6	0.034132622
106	0xbd1a4084	-0.037659183
107	0x3d8dd6bd	0.06925724
108	0xbc88c76a	-0.01669665
109	0xbdbe188f	-0.09282028
110	0xbe123f12	-0.14281872
111	0xbcfe306a	-0.031028945
112	0xbdcf0833	-0.10108986
113	0xbe4b3eda	-0.19848195
114	0xbc989ca2	-0.018629376
115	0x3c0d920c	0.008640777
116	0xbdae1910	-0.08500874
117	0x3d160d45	0.03663375
118	0xbccbc4ac	-0.024874054
119	0x3c107d57	0.008818946
120	0xbe049b56	-0.12949881
121	0x3d1594b3	0.036518764

sequential_1/dense_4/MatMul f4 [122, 122]
0	0x3d86e798	0.06587142
1	0xbe694645	-0.22780712
2	0x3f000650	0.5000963
3	0xbf0b01cf	-0.54299635
4	0xbd98d243	-0.07461979
5	0x3f25ffc0	0.6484337
6	0xbf0e6f11	-0.55638224
7	0xbd850a91	-0.06496156
8	0x3cc9e01b	0.024642995
9	0xbdd714b8	-0.10501999
10	0xbed23a3e	-0.4106006
11	0x3cbbff34	0.022948839
12	0xbe5fe538	-0.21864784
13	0xbe4966ba	-0.19668093
14	0xbe04d29f	-0.1297097
15	0xbefc938c	-0.4933132
16	0xbd15def8	-0.036589593
17	0x3e963859	0.29339865
18	0x3e672eff	0.22576521
19	0x3eb4bb39	0.3529909
20	0x3f98670a	1.1906445
21	0xbe78a733	-0.24282531
22	0xbeb44c73	-0.35214576
23	0xbd9fa5d8	-0.07795304
24	0xbda46503	-0.08027079
25	0x3ccedebb	0.02525269
26	0x3eae08bd	0.33991042
27	0x3e8f4b17	0.27986977
28	0xbe73ea3b	-0.2381982
29	0x3f0a9218	0.5412917
30	0x3e9d751d	0.30753413
31	0x3e43078d	0.19045849
32	0xbaf76a2a	-0.0018876244
33	0x3eb787cc	0.35845792
34	0x3ec4e01a	0.38452226
35	0xbbba3ce0	-0.0056835264
36	0x3defd78d	0.11711035
37	0x3c88b60d	0.016688371
38	0xbe5ed8ee	-0.2176244
39	0x3c7800ab	0.015136878
40	0xbd000de1	-0.031263236
41	0xbdb18559	-0.08668012
42	0x3e92b636	0.2865464
43	0xbdb953ec	-0.0904921
44	0x3d99269e	0.07478069
45	0xbe088023	-0.1333013
46	0x3d2a8ff7	0.0416412
47	0xbc8c07ec	-0.017093621
48	0xbcb589f8	-0.022160515
49	0xbe20e1d6	-0.1571115
50	0x3e297fc6	0.16552648
51	0x3e570490	0.20997834
52	0x3eb358a2	0.3502856
53	0x3e6c89ab	0.23099391
54	0x3e011bb4	0.12608224
55	0x3d85813a	0.06518789
56	0xbe54e3c6	-0.20790014
57	0xbe03bc8b	-0.12864892
58	0x3dab869e	0.083752856
59	0x3da00d0b	0.07814988
60	0x3e942cee	0.2894053
61	0xbad04914	-0.001589092
62	0x3e2adcaa	0.16685739
63	0x3d2ba71c	0.041907415
64	0x3df5c6a9	0.12000782
65	0x3df93e5c	0.12170097
66	0x3dac83f4	0.084236056
67	0xbe1e2700	-0.15444565
68	0x3d1d4ca7	0.03840318
69	0x3eaabf9a	0.33349305
70	0xbccdb1cf	-0.0251092
71	0x3daf92bf	0.085729115
72	0x3b8894ef	0.004168145
73	0x3e430259	0.19043864
74	0x3d914afa	0.07094379
75	0x3e2e9057	0.17047249
76	0x3d20969b	0.03920613
77	0xbb94e5c5	-0.004543992
78	0xbd907100	-0.07052803
79	0xbe187a12	-0.14890316
80	0x3ce66552	0.028124485
81	0xbdd64678	-0.104626596
82	0xbd9fd6ec	-0.07804665
83	0x3da3110e	0.07962237
84	0x3e5586fd	0.20852275
85	0x3f013106	0.5046543
86	0x3ed2b6b4	0.41155016
87	0x3dc5c96f	0.09657561
88	0x3e822a3f	0.25422856
89	0x3ea70fff	0.32629392
90	0xbf02b7a1	-0.51061445
91	0x3db156ef	0.086591594
92	0x3e4ff11e	0.20306823
93	0x3d9005d0	0.07032359
94	0x3ec28288	0.37990212
95	0x3e9c2552	0.30497223
96	0x3de0bdd7	0.10973709
97	0x3f127fde	0.5722636
98	0x3e10746a	0.14106908
99	0xbdc7cf3a	-0.09756322
100	0xbe0e8d19	-0.13921012
101	0x3e828785	0.25494018
102	0x3ed9c090	0.42529726
103	0x3d049024	0.032364026
104	0x3dcff718	0.10154551
105	0xbdadf56e	-0.084940776
106	0x3f587947	0.84560055
107	0x3e04f89e	0.12985465
108	0xbdd4dffa	-0.10394283
109	0x3e08126c	0.13288277
110	0xbdd53601	-0.10410691
111	0x3eaa0eed	0.33214512
112	0x3e25089f	0.1611657
113	0x3e9a1b92	0.3009916
114	0x3e06be0a	0.13158432
115	0xbee39e04	-0.44456494
116	0xbeaa94ea	-0.33316737
117	0x3ea64637	0.32475445
118	0x3dd16890	0.10225022
119	0x3ea9f40d	0.33194008
120	0xbdcea4da	-0.10090037
121	0xbde8dda4	-0.113703996
122	0xbf234ef0	-0.63792324
123	0xbf27e4ad	-0.65583307
124	0xbec99230	-0.39369345
125	0xbe8a7141	-0.2703953
126	0xbe36b0d2	-0.17840889
127	0xbbf2ea11	-0.007413157
128	0xbf3da962	-0.7408658
129	0x3e9b4bfd	0.30331412
130	0xbd87de37	-0.06634181
131	0xbe7a95eb	-0.24471252
132	0xbe93e569	-0.28885964
133	0x3e0c92c0	0.13727856
134	0x3e8e8b1f	0.27840516
135	0xbe261886	-0.16220292
136	0x3f1018c4	0.5628779
137	0xbf228e48	-0.63498354
138	0x3ccc69d0	0.0249528
139	0x3d009ff9	0.03140256
140	0x3e49d5da	0.19710484
141	0xbd5563cb	-0.052097123
142	0x3f884e9c	1.064899
143	0xbd08cdee	-0.033399515
144	0xbd3d03bf	-0.04614615
145	0xbe708cd6	-0.23491225
146	0xbd5848d5	-0.052803833
147	0x3db1eaa9	0.08687336
148	0xbe86151e	-0.26187986
149	0x3de6a1a3	0.112612985
150	0xbd84641c	-0.06464407
151	0x3ea72457	0.32644913
152	0xbd98f368	-0.07468301
153	0x3e5a88d7	0.21341263
154	0xbdca345c	-0.09873268
155	0x3e55a5ae	0.20863983
156	0x3db32d96	0.08748929
157	0xbe0702be	-0.1318464
158	0x3e04c966	0.12967452
159	0x3e3a8050	0.1821301
160	0xbdee169c	-0.11625406
161	0x3da24c2a	0.079246834
162	0xbd100230	-0.035158336
163	0xbcfe3b33	-0.031034088
164	0xbe6066eb	-0.2191426
165	0x3bc0df36	0.005885984
166	0x3d8d38f8	0.068956316
167	0x3dad8019	0.08471698
168	0xbc473533	-0.01215868
169	0xbdb91e7b	-0.09039017
170	0xbe310614	-0.17287475
171	0xbe35e558	-0.17763269
172	0xbe5a85a1	-0.21340038
173	0xbd4e591e	-0.050377958
174	0xbd04d0f8	-0.03242585
175	0x3eabfe47	0.33592436
176	0xbdd3d3e1	-0.10343147
177	0xbe226bc3	-0.1586142
178	0xbe44953c	-0.19197553
179	0xbd233a1b	-0.039850336
180	0xbe091496	-0.13386759
181	0xbd2afbb0	-0.041743934
182	0x3ca13c8c	0.019682191
183	0x3d9d7d21	0.07689882
184	0x3cf61ed9	0.030044006
185	0xbd832dcb	-0.06405219
186	0xbddedc66	-0.108818814
187	0xbd8c65d9	-0.068553634
188	0xbd9b0f4e	-0.075712785
189	0x3891d823	6.9543974e-05
190	0x3e036235	0.12830432
191	0x3dbbe19f	0.09173893
192	0xbe012c9a	-0.1261467
193	0xbd47982f	-0.048729118
194	0x3dc57c95	0.09642903
195	0xbe26e58d	-0.16298504
196	0xbcb6ffef	-0.022338836
197	0x3d52fbcf	0.051509675
198	0xbd77e0ac	-0.060517
199	0x3dca530b	0.098791204
200	0x3de05032	0.10952796
201	0x3d101184	0.035172954
202	0xbe36c4d4	-0.17848521
203	0xbdb004c9	-0.08594663
204	0xbca8f882	-0.02062631
205	0xbdaf0922	-0.08546664
206	0x3e960b8d	0.29305688
207	0x3ea41638	0.32048202
208	0xbd223955	-0.039605457
209	0xbdf7b7a0	-0.120955706
210	0xbb138ae2	-0.00225132
211	0x3d5e89c0	0.054330587
212	0xbe9d4718	-0.30718303
213	0x3eb21542	0.34781843
214	0x3c89de38	0.016829595
215	0xbdf7917c	-0.12088296
216	0x3dfadeba	0.12249513
217	0x3d9f608a	0.07782085
218	0xbe0803ef	-0.1328275
219	0x3e18cd2a	0.14922014
220	0xbe50b17b	-0.20380203
221	0x3d8a6fce	0.06759606
222	0x3c1867c9	0.009302088
223	0xbef9ee0b	-0.48814425
224	0xbddf12bc	-0.10892245
225	0x3c9a196c	0.01881095
226	0x3e82d295	0.25551286
227	0x3d50f298	0.051012605
228	0x3edad6f5	0.42742124
229	0xbdc53f0b	-0.09631165
230	0xbbb8c27f	-0.00563842
231	0xbe1a57a2	-0.15072492
232	0x3dba897c	0.09108254
233	0x3eb7fe84	0.35936368
234	0x3e0121de	0.12610576
235	0xbe47ef58	-0.19524896
236	0x3d2bfe89	0.04199079
237	0xbd42b070	-0.047531545
238	0x3e38a368	0.18031085
239	0x3dfe49a4	0.124163896
240	0xbd605077	-0.054764237
241	0x3ebb8c43	0.3663045
242	0x3ca3ddd2	0.020003233
243	0xbb7b5bf6	-0.0038354374
244	0xbed28fd7	-0.41125366
245	0xbe02d77a	-0.1277751
246	0xbdd394c0	-0.10331106
247	0xbe9e4569	-0.3091233
248	0xbe867121	-0.26258186
249	0x3d619a89	0.055079017
250	0xbef9e80b	-0.48809847
251	0x3d96db77	0.07366078
252	0x3e42b484	0.19014174
253	0x3e855aa5	0.2604572
254	0xbd147616	-0.036245428
255	0x3e32fc21	0.17478992

sequential_1/dense_5/MatMul f4 [64, 122]
0	0xbd8816bf	-0.066449635
1	0xbe3e1719	-0.18563499
2	0x3eaeccfd	0.3414077
3	0xbd926fd9	-0.071502395
4	0x3ee2f3da	0.4432667
5	0xbeb013ad	-0.3439001
6	0xbeb797e6	-0.35858077
7	0xbe9d34e8	-0.30704427
8	0xbdd54e52	-0.10415329
9	0x3ea34d6d	0.3189501
10	0xbe59d840	-0.21273899
11	0xbdb098d6	-0.08622901
12	0x3e91aa0a	0.28450042
13	0x3ee0f718	0.43938518
14	0x3dc7d12a	0.09756692
15	0xbe0cf938	-0.13766944
16	0x3ed940b2	0.4243217
17	0xbe1db2b6	-0.15400204
18	0xbe754e15	-0.23955567
19	0x3e608535	0.21925814
20	0xbec8a69e	-0.3918962
21	0xbe4c2663	-0.19936518
22	0xbca9a407	-0.020708097
23	0xbe7f8afc	-0.24955362
24	0x3e1e8e8d	0.15484066
25	0xbf1e786d	-0.61902505
26	0x3db3c1b0	0.08777177
27	0x3eb982e5	0.36232677
28	0xbd85d5cf	-0.065349214
29	0xbd6f1d5d	-0.058377612
30	0xbdc96bb7	-0.09834998
31	0xbef690fd	-0.48157492
32	0xbe636fb7	-0.22210585
33	0x3de5ef69	0.112273045
34	0xbe8c3439	-0.27383593
35	0x3e36e94c	0.17862433
36	0xbdc44d74	-0.095850855
37	0x3eef95cb	0.4679397
38	0x3e1e4c7e	0.15458867
39	0x3d864e28	0.06557876
40	0xbeab21cb	-0.3342422
41	0x3eca8d8c	0.39561117
42	0xbd80c7d2	-0.06288113
43	0xbee745e7	-0.4517052
44	0x3e97532c	0.29555643
45	0x3e604bc5	0.21903904
46	0xbc0dcb6d	-0.0086544575
47	0xbc8a331c	-0.016870074
48	0xbe24d0e0	-0.16095304
49	0x3d2b43ff	0.041812893
50	0x3da292be	0.07938145
51	0x3d640d9b	0.055677038
52	0xbe1a57d4	-0.15072566
53	0x3d954f0b	0.07290467
54	0x3f251212	0.644807
55	0xbe69759d	-0.22798772
56	0xbe4f1338	-0.20222175
57	0xbdaa3bed	-0.08312211
58	0xbf0db30d	-0.55351335
59	0xbcf09e0f	-0.029372243
60	0x3b67189d	0.0035262473
61	0xbeeba244	-0.46022236
62	0xbd3d2f4a	-0.046187676
63	0xbefd3ffd	-0.49462882
64	0xbddba07d	-0.1072397
65	0xbdd61ae3	-0.10454347
66	0x3c95e7ea	0.018299062
67	0xbf078d4b	-0.5294997
68	0x3e5ea58d	0.2174284
69	0xbd84d8de	-0.06486677
70	0xbe77c9b4	-0.24198037
71	0x3c77d547	0.015126533
72	0xbe853738	-0.2601869
73	0xbe00c56d	-0.12575312
74	0x3d452807	0.048133876
75	0x3c64f7ce	0.013975097
76	0x3e252313	0.16126661
77	0x3e0561c9	0.13025583
78	0x3e0cce54	0.13750583
79	0x3e142354	0.14466602
80	0x3d23cdd6	0.039991222
81	0xbd6c118e	-0.05763393
82	0xbd4a2b63	-0.049357783
83	0xbdd5c581	-0.104380615
84	0x3e441e4f	0.19152187
85	0x3dcf5845	0.10124258
86	0xbe4b2cf4	-0.19841367
87	0xbebbcf93	-0.36681804
88	0x3f25ccef	0.6476583
89	0xbeb8a226	-0.3606121
90	0xbdb59662	-0.08866574
91	0xbdaa3fbf	-0.0831294
92	0x3ef91d7c	0.48655307
93	0xbe8e360e	-0.27775615
94	0xbf0f2d15	-0.55928165
95	0x3e645541	0.22298147
96	0x3e431a85	0.19053085
97	0xbeb16669	-0.34648445
98	0xbdc2cdae	-0.095118865
99	0x3e4c7851	0.19967772
100	0x3d8157a0	0.06315541
101	0x3e852263	0.26002797
102	0xbc81e186	-0.015854608
103	0xbe34e581	-0.17665674
104	0xbe964010	-0.2934575
105	0xbe01e8db	-0.12686484
106	0xbe7548a8	-0.23953497
107	0x3e65ef8a	0.22454658
108	0x3e087946	0.13327512
109	0x3d508e5d	0.05091702
110	0xbd527b9b	-0.05138741
111	0x3e2300bb	0.15918247
112	0xbe1d0d94	-0.15337211
113	0x3c0ab559	0.008466088
114	0xbf0752a4	-0.52860475
115	0xbddb0a68	-0.10695344
116	0x3e88f0b2	0.26746136
117	0xbcea45ae	-0.028597679
118	0x3dceb0da	0.100923255
119	0x3e7c2ee3	0.24627261
120	0x3e3d6185	0.18494232
121	0x3e4f4d12	0.20244244
122	0x3e5dd9eb	0.2166516
123	0x3e994d9d	0.29942027
124	0x3ead3957	0.3383281
125	0x3e20c3f5	0.15699752
126	0xbd1e0b87	-0.038585212
127	0xbf87edda	-1.0619462
128	0xbef7988b	-0.4835857
129	0xbe15f1fe	-0.14643094
130	0xbc609af0	-0.013708815
131	0x3e29a792	0.16567829
132	0x3e31866d	0.17336436
133	0xbcd8ac23	-0.026449269
134	0x3da0cc22	0.07851435
135	0xbc108469	-0.008820632
136	0xbf2f1849	-0.6839643
137	0x3dedab36	0.116049215
138	0xbc61db68	-0.013785221
139	0xbe5e4447	-0.21705733
140	0x3e549c55	0.20762761
141	0xbde254f2	-0.11051358
142	0x3ec3be27	0.38231012
143	0x3d64a295	0.055819113
144	0x3ec6e234	0.38844454
145	0xbe534ed2	-0.20635536
146	0x3cda368d	0.02663734
147	0xbda30c85	-0.07961372
148	0xbe25d237	-0.16193472
149	0x3e3b5466	0.18293914
150	0x3dea70d4	0.114473015
151	0x3e21cf75	0.15801795
152	0xbf135f0f	-0.5756692
153	0xbf140245	-0.57815963
154	0xbed19ee8	-0.40941548
155	0xbe1979af	-0.14987825
156	0xbeb58700	-0.3545456
157	0xbdc973b9	-0.098365255
158	0xbd659985	-0.05605461
159	0x3eb38e9e	0.35069746
160	0xbba6a4d5	-0.0050855675
161	0x3b4415cf	0.0029920225
162	0x3e3e7fe5	0.18603475
163	0xbd8fb540	-0.070169926
164	0x3deb003b	0.11474653
165	0xbf51bebb	-0.81931657
166	0xbed4786d	-0.41498128
167	0xbd844a3e	-0.06459473
168	0x3e1dda32	0.15415266
169	0x3db737a3	0.08946159
170	0xbeebe012	-0.4606939
171	0xbcef7b09	-0.029233472
172	0x3e250d69	0.16118397
173	0xbeab9c23	-0.3351756
174	0x3e137bbd	0.14402671
175	0x3e88e8c9	0.267401
176	0x3eb9a186	0.36256045
177	0xbedaff80	-0.42773056
178	0xbe0f434d	-0.13990517
179	0x3db607c5	0.08888201
180	0xbe5236a9	-0.20528664
181	0x3f1cd9ed	0.6127003
182	0x3e2cc50c	0.16872042
183	0xbef5351b	-0.4789208
184	0x3ca83422	0.020532671
185	0xbd502945	-0.050820608
186	0x3dae865e	0.08521722
187	0x3e85e360	0.26150036
188	0xbdefb77a	-0.11704917
189	0xbe232ba8	-0.15934622
190	0x3e00d954	0.12582904
191	0xbe9e197b	-0.30878815
192	0xbdac41dc	-0.08410999
193	0x3da8f79e	0.08250354
194	0x3abe7cdc	0.0014533061
195	0xbbe1d19b	-0.006891442
196	0x3e566785	0.20937927
197	0x3d0a5a5e	0.033777587
198	0x3e636952	0.22208145
199	0x3e90b11f	0.28260133
200	0x3f1feac0	0.62467575
201	0xbdb82af3	-0.08992567
202	0x3e1760df	0.14783047
203	0xbe385f77	-0.18005167
204	0xbe0f0d23	-0.13969855
205	0xbd06326e	-0.032762937
206	0x3d8aa987	0.06770616
207	0xbe940892	-0.2891279
208	0x3d695038	0.05696127
209	0x3e049206	0.12946329
210	0x3fa4c6be	1.2873151
211	0x3d0e5de1	0.0347575
212	0xbf06573d	-0.52476865
213	0x3e32fd7a	0.17479506
214	0x3f1853a0	0.595026
215	0x3e894cb6	0.26816338
216	0xbe4e8ac9	-0.2017013
217	0xbdd007f6	-0.101577684
218	0xbe57cf18	-0.21075094
219	0x3b89043b	0.0041814125
220	0x3d0e0c11	0.034679476
221	0x3db668bd	0.08906696
222	0xbd2649aa	-0.040597595
223	0x3e15e597	0.14638363
224	0x3d6797fc	0.056541428
225	0x3e5f56f8	0.2181052
226	0xbdaec382	-0.08533384
227	0x3e160c6b	0.14653175
228	0xbe0a3ed0	-0.13500524
229	0x3c80bace	0.015714075
230	0xbd5403ff	-0.051761623
231	0xbcc80706	-0.024417412
232	0x3d294798	0.041328043
233	0x3d926e2e	0.07149921
234	0x3d12c292	0.035830088
235	0xbcab13e0	-0.0208835
236	0xbf86f095	-1.054217
237	0x3f070664	0.52744126
238	0x3cffb456	0.03121392
239	0x3d9889ff	0.07448196
240	0x3f1f0bdb	0.62127465
241	0xbe912748	-0.28350282
242	0x3e249f75	0.16076453
243	0xbe870120	-0.26368046
244	0x3e6f32b6	0.23359188
245	0x3e269808	0.16268933
246	0x3e441873	0.19149952
247	0x3ea9ab44	0.33138478
248	0x3e3e63c4	0.18592745
249	0xbf678685	-0.90439636
250	0xbf10f55c	-0.5662439
251	0xbc5cf9f8	-0.013487332
252	0xbe12c109	-0.1433145
253	0x3ecc251d	0.39872065
254	0x3e1f9c12	0.1558688
255	0xbe043572	-0.12911013

sequential_1/dense_6/MatMul f4 [1, 64]
0	0xbf538601	-0.8262635
1	0xbef518e8	-0.47870564
2	0xbee6649e	-0.4499864
3	0x3eb0d5a4	0.34537995
4	0x3ef2e406	0.47439593
5	0x3f469f45	0.77586776
6	0x3e9b9fb4	0.3039528
7	0x3f4b34c6	0.793774
8	0x3f07b39c	0.5300844
9	0x3ee54493	0.4477888
10	0x3f015876	0.50525606
11	0x3ef2e744	0.47442067
12	0x3e65cf5e	0.22442386
13	0x3f8ea1c3	1.1143116
14	0xbeae590b	-0.3405231
15	0x3e34c7f6	0.17654404
16	0x3db6d6bd	0.08927677
17	0xbfbcfc56	-1.4764507
18	0x3ee7bf3f	0.45263097
19	0x3e720243	0.23633675
20	0x3f20e74d	0.62852937
21	0x3e82e564	0.25565636
22	0xbed48688	-0.4150889
23	0x3f312e18	0.6921096
24	0xbec0ad31	-0.37632135
25	0xbe889c89	-0.26681927
26	0x3f2fe213	0.68704337
27	0x3ee5bb52	0.44869477
28	0x3efd0da1	0.4942446
29	0x3f793bbd	0.9735678
30	0x3ca18267	0.019715501
31	0xbee9f8f4	-0.4569775
32	0x3edb80f9	0.42871836
33	0xbee3be35	-0.44481054
34	0x3f39d62f	0.72592443
35	0x3f249a09	0.6429754
36	0xbe98d5c6	-0.29850596
37	0xbe8f60f3	-0.28003654
38	0x3ea28f5c	0.3175
39	0x3f1168f4	0.5680077
40	0xbf0102f1	-0.50395113
41	0xbf7894ab	-0.9710185
42	0xbf577db3	-0.84176177
43	0x3eda746e	0.42666954
44	0xbeac47c2	-0.33648497
45	0x3e894a11	0.2681432
46	0x3eaeb394	0.34121382
47	0xbe8de198	-0.27711177
48	0xbf6d0130	-0.92579937
49	0x3ee09fb3	0.4387184
50	0x3f616d4f	0.88057417
51	0x3eb552fb	0.35414872
52	0x3f5be37b	0.8589398
53	0xbf380b16	-0.71891916
54	0x3f03da16	0.5150465
55	0xbeadb156	-0.3392436
56	0x3f1bcdf1	0.60861117
57	0x3f3349e2	0.7003461
58	0xbe2a929c	-0.1665749
59	0x3f52b92b	0.82313794
60	0x3f1ca0c5	0.61182815
61	0x3ee87c85	0.454075
62	0xbe4f6603	-0.20253758
63	0x3ec85b91	0.3913236
